…
   "outputs": [
    {
     "name": "stdout",
     "output_type": "stream",
     "text": [
      "WARNING:tensorflow:From C:\\ProgramData\\Anaconda3\\lib\\site-packages\\keras\\backend\\tensorflow_backend.py:4070: The name tf.nn.max_pool is deprecated. Please use tf.nn.max_pool2d instead.\n",
      "\n",
      "Model: \"sequential_1\"\n",
      "_________________________________________________________________\n",
      "Layer (type)                 Output Shape              Param #   \n",
      "=================================================================\n",
      "conv2d_1 (Conv2D)            (None, 126, 126, 32)      896       \n",
      "_________________________________________________________________\n",
      "batch_normalization_1 (Batch (None, 126, 126, 32)      128       \n",
      "_________________________________________________________________\n",
      "max_pooling2d_1 (MaxPooling2 (None, 63, 63, 32)        0         \n",
      "_________________________________________________________________\n",
      "dropout_1 (Dropout)          (None, 63, 63, 32)        0         \n",
      "_________________________________________________________________\n",
      "conv2d_2 (Conv2D)            (None, 61, 61, 64)        18496     \n",
      "_________________________________________________________________\n",
      "batch_normalization_2 (Batch (None, 61, 61, 64)        256       \n",
      "_________________________________________________________________\n",
      "max_pooling2d_2 (MaxPooling2 (None, 30, 30, 64)        0         \n",
      "_________________________________________________________________\n",
      "dropout_2 (Dropout)          (None, 30, 30, 64)        0         \n",
      "_________________________________________________________________\n",
      "conv2d_3 (Conv2D)            (None, 28, 28, 128)       73856     \n",
      "_________________________________________________________________\n",
      "batch_normalization_3 (Batch (None, 28, 28, 128)       512       \n",
      "_________________________________________________________________\n",
      "max_pooling2d_3 (MaxPooling2 (None, 14, 14, 128)       0         \n",
      "_________________________________________________________________\n",
      "dropout_3 (Dropout)          (None, 14, 14, 128)       0         \n",
      "_________________________________________________________________\n",
      "flatten_1 (Flatten)          (None, 25088)             0         \n",
      "_________________________________________________________________\n",
      "dense_1 (Dense)              (None, 512)               12845568  \n",
      "_________________________________________________________________\n",
      "batch_normalization_4 (Batch (None, 512)               2048      \n",
      "_________________________________________________________________\n",
      "dropout_4 (Dropout)          (None, 512)               0         \n",
      "_________________________________________________________________\n",
      "dense_2 (Dense)              (None, 2)                 1026      \n",
      "=================================================================\n",
      "Total params: 12,942,786\n",
      "Trainable params: 12,941,314\n",
      "Non-trainable params: 1,472\n",
      "_________________________________________________________________\n"
     ]
    }
   ],
   "source": [
    "from keras.models import Sequential\n",
    "from keras.layers import Conv2D, MaxPooling2D, Dropout, Flatten, Dense, Activation, BatchNormalization\n",
…
